dnn_model_fold_2.tflite (tflite, 316904 bytes, 7 tensors)

arith.constant f4 [1, 32]
0.16417821 0.30026618 0.37503657 -0.13339871 -0.08177332 0.23620139 0.31486642 -0.1560663
0.08617788 -0.17389454 -0.18233056 0.16453686 -0.2243771 -0.06965909 -0.19138159 -0.14468339
-0.20334822 -0.23855998 -0.33548307 0.10229012 -0.2986837 0.23786575 0.29141855 0.37152487
0.33463046 -0.23663019 -0.048316326 0.19115746 -0.32463282 0.2624864 -0.2661587 0.14427575
00000000: 551e 283e 7dbc 993e cb04 c03e ac99 08be
00000010: c578 a7bd c7de 713e 2c36 a13e d8cf 1fbe
00000020: 077e b03d 6911 32be ddb4 3abe 5a7c 283e
00000030: 1cc3 65be 6da9 8ebd 89f9 43be e227 14be
00000040: 843a 50be 1149 74be 70c4 abbe 7c7d d13d
00000050: 12ed 98be 1493 733e d034 953e 8238 be3e
00000060: af54 ab3e 2f4f 72be 57e7 45bd c8be 433e
00000070: 4636 a6be 9e64 863e f445 88be 06bd 133e

arith.constant1 f4 [32, 64]
-0.1784233 0.029990396 -0.047503363 0.061704285 -0.010212813 0.032895133 0.2153391 -0.11309795
-0.025999667 -0.22232693 0.022499429 0.023198849 -0.01998934 0.14770527 0.19035195 -0.12784389
0.04112422 -0.20001006 -0.117064945 0.09195882 -0.052199893 -0.048015025 0.22586495 -0.033501953
0.03946015 0.0032735653 -0.24880286 -0.2169592 0.13841373 0.06589719 -0.036829263 -0.19498101
0.014910202 -0.16493092 -0.13379599 -0.12967527 0.24183814 -0.0922246 -0.05338776 0.23390582
-0.1746936 -0.23532699 0.05402527 -0.2360698 0.08752124 -0.14118077 0.21771216 -0.1283504
-0.035256904 0.023815304 0.055082664 -0.2396099 0.05259964 -0.18156956 -0.1415791 -0.12928429
-0.0815462 0.17975925 0.20358206 0.12056279 -0.25384662 -0.06694478 -0.09594365 0.01762427
0.096674636 -0.14720826 -0.040470514 0.0151116075 0.13217893 0.0045026 -0.21976002 -0.026081622
0.14334692 0.09189471 -0.021927478 0.0767452 -0.1653792 0.1530686 -0.111539066 -0.042860173
-0.17388721 -0.12983066 -0.042213224 0.049914755 0.14733723 0.14113532 -0.104291424 0.09162405
-0.23142822 0.14382657 -0.12201744 0.001865745 0.073473185 0.19854365 -0.008884492 -0.17436484
0.089004554 0.06917766 -0.06251526 0.1616456 -0.21719292 -0.12739435 -0.114394374 -0.10856867
-0.02515482 0.0182898 -0.2343181 0.00090668706 -0.12918508 -0.217553 -0.11663642 0.020741576
-0.044832814 -0.22848338 -0.13483803 -0.011822417 -0.020145033 0.12099575 0.1058704 0.16792263
0.032909356 -0.19281486 -0.09794368 -0.044266097 0.13638936 0.21245609 0.17907104 0.09386351
-0.1405577 -0.1790566 -0.07725791 -0.06565242 -0.20920472 0.21307409 -0.09011717 0.045290947
-0.094272755 0.12320749 -0.16058022 0.2519533 0.11097178 -0.1990352 -0.071475536 -0.02027335
0.1493024 -0.020071717 0.11928276 0.030858047 0.08869404 -0.061147016 0.13263808 -0.028294181
-0.10422525 -0.06067879 -0.000663799 0.20530748 -0.033533685 0.19468239 0.22597532 -0.02385164
-0.20126563 -0.010304254 -0.22918284 -0.01911003 -0.22049506 0.10748848 0.07524311 0.11056311
0.21277651 -0.049377386 0.09896201 0.09781409 -0.116880305 0.122921325 0.20421004 0.08876026
0.24200056 -0.11861777 -0.18899304 0.045661904 0.14527656 0.07260052 -0.052338827 0.15818007
-0.19674398 -0.1004542 -0.17023133 -0.074591726 -0.17895535 0.009643719 0.019635614 -0.19391048
0.046078954 0.13552547 0.24521965 -0.2214383 0.03655185 0.09010002 -0.13138148 -0.17157498
-0.16935086 -0.08237885 0.054701556 0.14312232 -0.0407443 0.06818244 0.18284892 -0.11155815
0.23756246 -0.041332748 -0.093376264 -0.06184367 0.24594145 0.061088547 -0.1294619 -0.043013282
0.02351659 0.14264578 0.00047915275 -0.05687594 -0.017358221 0.03539688 -0.086098954 -0.05277255
0.13875945 0.11083163 0.051235095 -0.07739389 0.038909882 -0.1946994 0.17084843 0.07976867
-0.07659818 -0.015683224 -0.21640879 0.23859432 -0.09825473 0.18397078 0.18506257 0.22865775
-0.11184689 0.14098275 0.04972806 0.0007131229 -0.08960334 -0.23482494 0.09918436 0.014862375
-0.11169581 -0.24766788 0.09171131 -0.09176646 -0.1928497 -0.10585089 -0.081608996 -0.02160447
00000000: 99b4 36be 6bae f53c e392 42bd a2bd 7c3d
00000010: a453 27bc 0cbd 063d da81 5c3e e69f e7bd
00000020: 41fd d4bc aca9 63be b950 b83c 830b be3c
00000030: afc0 a3bc 0d40 173e 9feb 423e 82e9 02be
00000040: df71 283d 70cf 4cbe bfbf efbd e854 bc3d
00000050: 8ecf 55bd 67ab 44bd 2449 673e 5839 09bd
00000060: f7a0 213d 5089 563b 2dc6 7ebe 8d2a 5ebe
00000070: 54bc 0d3e 1bf5 863d 48da 16bd 1aa9 47be
00000080: eb49 743c a7e3 28be d101 09be 98c9 04be
00000090: 6ba4 773e 40e0 bcbd 20ad 5abd 0285 6f3e
000000a0: e1e2 32be 8ff9 70be 9a49 5d3d 48bc 71be
000000b0: 563e b33d b191 10be f0ef 5e3e 4a6e 03be
000000c0: 8b69 10bd 5018 c33c 5c9e 613d 4c5c 75be
000000d0: b872 573d 5fed 39be 1dfa 10be 1a63 04be
000000e0: b201 a7bd cf12 383e d177 503e a0e9 f63d
000000f0: 2ff8 81be 581a 89bd 1b7e c4bd c660 903c
00000100: 5afd c53d c3bd 16be 69c4 25bd ad96 773c
00000110: ea59 073e 8c8a 933b c508 61be 20a9 d5bc
00000120: 89c9 123e 4b33 bc3d 41a1 b3bc 962c 9d3d
00000130: 2a59 29be 04be 1c3e 986e e4bd 268e 2fbd
00000140: 7d0f 32be 54f2 04be c6e7 2cbd 6a73 4c3d
00000150: 92df 163e c785 103e be96 d5bd 64a5 bb3d
00000160: 85fb 6cbe 4647 133e 48e4 f9bd 048c f43a
00000170: 1c79 963d 074f 4b3e 4390 11bc b28c 32be
00000180: 0548 b63d 04ad 8d3d 0008 80bd 6d86 253e
00000190: d267 5ebe aa73 02be 9947 eabd 4059 debd
000001a0: 7b11 cebc 7ed4 953c 16f1 6fbe bdae 6d3a
000001b0: 1849 04be 37c6 5ebe 13df eebd 3dea a93c
000001c0: 9da2 37bd 8cf7 69be fb12 0abe d0b2 41bc
000001d0: 3207 a5bc 9fcc f73d 95d2 d83d e9f3 2b3e
000001e0: f6cb 063d 4271 45be b296 c8bd 5e50 35bd
000001f0: a7a9 0b3e 178e 593e 665e 373e 833b c03d
00000200: 5cee 0fbe 9d5a 37be 6539 9ebd c774 86bd
00000210: c339 56be 1830 5a3e 5a8f b8bd 0083 393d
00000220: 1312 c1bd 3554 fc3d 246f 24be 0600 813e
00000230: 2c45 e33d e2cf 4bbe c461 92bd 4c14 a6bc
00000240: bae2 183e 716d a4bc 854a f43d 04ca fc3c
00000250: 39a5 b53d 4b75 7abd 47d2 073e 33c9 e7bc
00000260: 0c74 d5bd 538a 78bd cc02 2eba 203c 523e
00000270: 9e5a 09bd d25a 473e 1366 673e 8464 c3bc
00000280: 9418 4ebe 2cd3 28bc e8ae 6abe a38c 9cbc
00000290: 75c9 61be ec22 dc3d 0f19 9a3d e96e e23d
000002a0: 16e2 593e f13f 4abd 98ac ca3d c152 c83d
000002b0: f15e efbd 2dbe fb3d 701c 513e f0c7 b53d
000002c0: ffce 773e e0ed f2bd 6487 41be fa07 3b3d
000002d0: 61c3 143e 95af 943d 3d61 56bd f5f9 213e
000002e0: 4177 49be eeba cdbd 1f51 2ebe 8cc3 98bd
000002f0: 1240 37be b000 1e3c deda a03c 7890 46be
00000300: 49bd 3c3d 30c7 0a3e dc1a 7b3e b9c0 62be
00000310: 65b7 153d 5c86 b83d de88 06be 5ab1 2fbe
00000320: 506a 2dbe 3eb6 a8bd bd0e 603d a88e 123e
00000330: 7fe3 26bd 3ca3 8b3d bf3c 3b3e 9978 e4bd
00000340: 9343 733e 874c 29bd 0e3c bfbd ca4f 7dbd
00000350: 13d8 7b3e fc37 7a3d a991 04be b22e 30bd
00000360: dda5 c03c bc11 123e cb36 fb39 bff6 68bd
00000370: d432 8ebc 52fc 103d a654 b0bd 0828 58bd
00000380: f516 0e3e b2fb e23d e4db 513d b080 9ebd
00000390: f85f 1f3d 485f 47be e4f2 2e3e c25d a33d
000003a0: 82df 9cbd 1b7a 80bc 449a 5dbe 1252 743e
000003b0: c739 c9bd d662 3c3e 0b81 3d3e 4225 6a3e
000003c0: fb0f e5bd c85d 103e a6af 4b3d def0 3a3a
000003d0: f581 b7bd f375 70be 2b21 cb3d 5281 733c
000003e0: c6c0 e4bd a69c 7dbe 24d3 bb3d 0ef0 bbbd
000003f0: 647a 45be 5ac8 d8bd 9e22 a7bd dcfb b0bc

arith.constant2 f4 [64, 128]
0.03112869 0.12389143 0.12599845 0.175858 0.14807655 0.0059986413 0.16234648 -0.1463834
0.07092725 0.060650855 -0.11550042 0.06565273 -0.16899128 0.15893613 -0.07396654 -0.023666747
0.15581852 0.10568803 0.15488338 -0.123656794 -0.09777011 0.051335678 -0.15309507 -0.107258186
0.05207516 -0.08357003 0.14566393 0.036779612 0.114221714 -0.1567861 -0.18016289 0.12220792
-0.13190036 -0.13480315 0.086124584 0.1422918 0.17652081 0.019742936 -0.06850827 0.07406096
-0.008467696 0.0022830516 0.07972402 0.109971784 0.052232765 -0.13532953 0.11807282 -0.063064754
0.17075546 0.031349957 0.08142899 0.0879807 -0.044612527 0.07879574 -0.0055440124 0.029993186
-0.17785722 0.17385142 -0.17024747 0.06804347 -0.13711582 -0.016080497 0.10623787 0.025233591
-0.02628003 0.06234227 -0.0555251 -0.005179167 0.17203529 -0.13797319 -0.08945656 0.05462809
0.089902826 0.0032062365 0.13348608 -0.022315044 0.16239464 0.09965012 0.10818471 -0.12815592
-0.07641194 0.11947375 -0.006047815 -0.12824212 -0.04158415 -0.008468033 -0.08296558 0.14317834
0.13271771 0.1296734 0.07942034 0.13399489 0.05535415 0.12470311 0.02168034 0.11707505
-0.17244615 0.054883648 0.04633245 -0.06832853 -0.02486966 0.04256932 -0.05143568 -0.007106766
-0.0254865 -0.026928633 0.02708274 0.07083567 0.116224416 -0.15134266 -0.06325007 0.080277644
-0.07899889 0.01245895 -0.08785084 -0.014094785 0.08329296 0.0046847016 -0.013900794 -0.016444057
-0.17101273 -0.057312593 0.054474037 -0.028007075 0.042359695 -0.051595807 0.029579973 -0.01640838
-0.107904784 0.031123087 0.07302685 -0.16782323 0.0618384 0.1279502 -0.17178339 -0.0025990647
-0.1316888 -0.11379021 0.1459649 -0.018663421 -0.02835147 -0.060920276 -0.06667025 0.12156286
-0.009867326 -0.07771249 -0.14108069 0.058880895 -0.139379 0.08220638 0.013965768 -0.1243256
0.18035951 -0.05168079 -0.047280625 -0.17551933 0.007085681 0.15876709 -0.078813 0.061210927
0.13756381 0.052267954 0.12051062 -0.12123568 -0.13370611 -0.1584174 0.049094036 -0.17787504
0.12836087 -0.09160883 -0.020458229 0.10010618 0.15815507 0.09084708 -0.035331164 0.109655246
-0.07439779 0.100918606 0.08081476 -0.020744162 0.1666864 0.062074903 0.08827133 0.028772954
-0.032169558 0.06411433 0.09477697 0.015612587 -0.03313213 0.11910273 0.060605854 -0.10681272
-0.17116012 0.15983303 -0.049537003 0.03530218 0.09345929 -0.0033046901 -0.13339153 -0.12907228
0.024243888 -0.17685331 -0.047516786 -0.15712366 -0.14124328 0.025858218 -0.13390605 -0.074528724
0.1730551 -0.06985887 0.113356546 -0.16433732 -0.015817076 -0.0705527 -0.1608349 0.10453756
0.10702886 -0.047856614 -0.037653446 -0.16595507 -0.1497703 -0.14473127 0.0012840033 0.034662798
-0.069203146 0.058413755 -0.077771805 0.15777022 0.08768416 -0.06904239 -0.16818795 -0.12980677
0.12535758 -0.17462097 -0.09472401 -0.118976995 0.1743116 0.08989885 0.105034426 -0.14617378
-0.06651598 0.16403385 -0.06334547 0.032977417 -0.031381905 -0.12667727 0.1244352 -0.17560656
-0.08135669 0.12327029 0.17150527 -0.05591248 0.044246852 -0.008751121 0.070905805 0.06859988
00000000: 9801 ff3c caba fd3d bd05 013e 1f14 343e
00000010: 61a1 173e 4090 c43b 283e 263e 88e5 15be
00000020: 4e42 913d 086d 783d 7c8b ecbd f074 863d
00000030: 0d0c 2dbe 27c0 223e c57b 97bd c4e0 c1bc
00000040: e48e 1f3e f772 d83d c099 1e3e c63f fdbd
00000050: b23b c8bd 5c45 523d f4c4 1cbe 2eaa dbbd
00000060: c34c 553d c426 abbd ed28 153e 38a6 163d
00000070: 13ed e93d 898c 20be 9f7c 38be 2548 fa3d
00000080: e310 07be d609 0abe 1662 b03d f1b4 113e
00000090: dfc1 343e f0bb a13c 104e 8cbd 46ad 973d
000000a0: 17bc 0abc 409f 153b 5946 a33d e338 e13d
000000b0: 06f2 553d d393 0abe 2ad0 f13d 1828 81bd
000000c0: 85da 2e3e d068 003d 3ec4 a63d 3a2f b43d
000000d0: a0bb 36bd a95f a13d 8caa b5bb 45b4 f53c
000000e0: 3420 36be 1b06 323e 5a55 2ebe 605a 8b3d
000000f0: 1768 0cbe 3fbb 83bc 3e93 d93d adb6 ce3c
00000100: 3849 d7bc 9c5a 7f3d 4a6e 63bd 00b6 a9bb
00000110: 052a 303e d848 0dbe 0035 b7bd b4c1 5f3d
00000120: f91e b83d b91f 523b 93b0 083e 0ace b6bc
00000130: c84a 263e 5d15 cc3d f28f dd3d 4e3b 03be
00000140: dd7d 9cbd a7ae f43d c02c c6bb e751 03be
00000150: 2454 2abd 81bd 0abc dce9 a9bd 589d 123e
00000160: 27e7 073e 1bc9 043e 22a7 a23d f535 093e
00000170: 08bb 623d 5864 ff3d f89a b13c 0bc5 ef3d
00000180: b995 30be adcd 603d 18c7 3d3d d4ef 8bbd
00000190: 75bb cbbc 2b5d 2e3d 38ae 52bd e0df e8bb
000001a0: 10c9 d0bc 7099 dcbc 9fdc dd3c 4b12 913d
000001b0: 1107 ee3d 92f9 1abe 4189 81bd 9b68 a43d
000001c0: 2cca a1bd a020 4c3c 24eb b3bd d0ed 66bc
000001d0: 8095 aa3d 2082 993b 28c0 63bc b0b5 86bc
000001e0: f61d 2fbe 9cc0 6abd 2b20 5f3d 186f e5bc
000001f0: 5c81 2d3d 2056 53bd b351 f23c de6a 86bc
00000200: 2ffd dcbd d8f5 fe3c 1a8f 953d dad9 2bbe
00000210: 434a 7d3d 6105 033e fce7 2fbe 1255 2abb
00000220: 6ed9 06be d70a e9bd d377 153e 08e4 98bc
00000230: 5841 e8bc 8a87 79bd 698a 88bd f3f5 f83d
00000240: 91aa 21bc ba27 9fbd 7577 10be 182d 713d
00000250: 5eb9 0ebe d25b a83d add0 643c 6c9e febd
00000260: 2ab0 383e 3caf 53bd 54a9 41bd 57bb 33be
00000270: 002f e83b d793 223e b668 a1bd 4fb8 7a3d
00000280: 87dd 0c3e ec16 563d 46ce f63d 6a4a f8bd
00000290: 41ea 08be 2c38 22be d416 493d e024 36be
000002a0: 0871 033e 699d bbbd 0498 a7bc 7804 cd3d
000002b0: 67f3 213e 090e ba3d 69b7 10bd ee92 e03d
000002c0: de5d 98bd 6aae ce3d 3582 a53d a9ef a9bc
000002d0: d7af 2a3e 4142 7e3d 99c7 b43d 42b5 eb3c
000002e0: 3ac4 03bd 604e 833d 6e1a c23d f0cb 7f3c
000002f0: 8eb5 07bd 22ec f33d d83d 783d a1c0 dabd
00000300: 9944 2fbe 45ab 233e 50e7 4abd 0599 103d
00000310: 9667 bf3d 8093 58bb ca97 08be 862b 04be
00000320: 1e9b c63c 0919 35be f6a0 42bd 06e5 20be
00000330: 14a2 10be 9dd4 d33c ab1e 09be 84a2 98bd
00000340: 5b35 313e 2b12 8fbd 7a27 e83d 0b48 28be
00000350: d092 81bc ef7d 90bd e7b1 24be ca17 d63d
00000360: f231 db3d 4c05 44bd 803a 1abd 20f0 29be
00000370: 635d 19be 6f34 14be 004c a83a 94fa 0d3d
00000380: 61ba 8dbd 4343 6f3d d346 9fbd 848e 213e
00000390: c193 b33d 1966 8dbd 7639 2cbe 11ec 04be
000003a0: bd5d 003e d7cf 32be a9fe c1bd 36aa f3bd
000003b0: bd7e 323e e31c b83d 4a1c d73d 94ae 15be
000003c0: 8839 88bd 7df8 273e 45bb 81bd 5413 073d
000003d0: 508a 00bd b0b7 01be e2d7 fe3d 35d2 33be
000003e0: 569e a6bd 2275 fc3d 149f 2f3e 7c04 65bd
000003f0: 303c 353d dd60 0fbc 1037 913d 187e 8c3d

sequential_3_1/dense_10_1/Add/ReadVariableOp f4 [64]
-0.0002941822 -0.0021019562 -0.053579293 -0.08997907 -0.18046334 -0.033769496 -0.049673505 -0.048281945
-0.0075402055 -0.043936934 -0.1626764 0.14456916 -0.0017016205 -0.14228395 -0.0006227862 -0.053665753
-0.039731804 -0.11984831 -0.062653616 -0.08300423 -0.07116643 0.07913315 -0.07326023 0.08072913
0.004006632 -0.19916634 -0.043690346 -0.071294196 0.00799511 -0.022224322 0.082202695 -0.015126745
-0.009653535 -0.09012654 -0.15294378 -0.057215672 -0.10733181 0.026506234 -0.058390483 -0.028502932
-0.092490055 0.02003918 -0.015698541 0.039278913 -0.09659447 -0.009814289 0.09498085 -0.041513614
0.06152891 -0.09963669 -0.01995923 0.064809844 0.0004055894 -0.113520525 -0.057018526 -0.05678999
0.022366794 0.03060613 -0.055498008 -0.019610206 -0.022152357 -0.037748996 0.05613928 0.007892123
00000000: 773c 9ab9 f9c0 09bb f675 5bbd f246 b8bd
00000010: 62cb 38be e251 0abd 7276 4bbd 4ac3 45bd
00000020: d413 f7bb 37f7 33bd a494 26be f009 143e
00000030: e908 dfba e2b2 11be 7942 23ba 9fd0 5bbd
00000040: d1bd 22bd 0873 f5bd 8a50 80bd 1ffe a9bd
00000050: b5bf 91bd 9010 a23d 7609 96bd 5055 a53d
00000060: 114a 833b 43f2 4bbe a6f4 32bd b102 92bd
00000070: ecfd 023c c80f b6bc e359 a83d 2bd6 77bc
00000080: dc29 1ebc 4394 b8bd 4b9d 1cbe fb5a 6abd
00000090: c8d0 dbbd 9a23 d93c dc2a 6fbd fb7e e9bc
000000a0: 6d6b bdbd 3529 a43c 3a9a 80bc ede2 203d
000000b0: 52d3 c5bd 1dcc 20bc 5285 c23d 2e0a 2abd
000000c0: bd05 7c3d 520e ccbd 8a81 a3bc 06bb 843d
000000d0: 4aa5 d439 737d e8bd 428c 69bd 9f9c 68bd
000000e0: 913a b73c b5b9 fa3c e151 63bd 95a5 a0bc
000000f0: dc78 b5bc b19e 1abd 4df2 653d f74d 013c

sequential_3_1/dense_11_1/Add/ReadVariableOp f4 [32]
-0.11741557 0.048530668 0.095722176 -0.06417398 0.054710597 0.020141175 -0.037561458 -0.075569846
0.09040055 -0.01318436 0.043787643 0.18594235 -0.043044917 0.003719942 -0.058388017 -0.04450115
-0.013355264 0.00084813905 0.025122812 0.045058083 -0.13139673 0.098950975 0.022384608 0.09512314
0.07047468 -0.026847051 -0.08161616 -0.0105344 -0.02256238 0.1154799 -0.0075975917 0.14525342
00000000: 9377 f0bd 18c8 463d fd09 c43d a66d 83bd
00000010: 3818 603d 1bff a43c 0bda 19bd 5dc4 9abd
00000020: ec23 b93d 3703 58bc ac5a 333d ac67 3e3e
00000030: de4f 30bd 45ca 733b 4628 6fbd d646 36bd
00000040: 0ad0 5abc a655 5e3a 5bce cd3c d38e 383d
00000050: dd8c 06be cfa6 ca3d ed5f b73c eccf c23d
00000060: 0755 903d 59ee dbbc 6026 a7bd 7a98 2cbc
00000070: bed4 b8bc ba80 ec3d 38f5 f8bb 50bd 143e

sequential_3_1/dense_9_1/Add/ReadVariableOp f4 [128]
0.0 0.0 -0.00981689 0.0 -0.011787878 0.0 -0.024732843 -0.016206386
0.0 -0.009299439 -0.008592982 -0.013583929 -0.0054593477 0.0 -0.0073636523 -0.012552106
0.0026869085 -0.011811621 -0.024795428 -0.019780051 0.0 -0.0054741087 -0.014268121 -0.0010581393
-0.0100145405 -0.02195828 -0.006004334 0.0 -0.011140925 0.0 -0.028173927 -0.010642839
-0.025532383 0.0 0.0 -0.0058463425 0.0 0.0 -0.005227903 -0.028226791
-0.013174311 0.0 -0.018808004 -0.011238542 -0.006573677 -0.015984636 -0.0023759848 -0.03359591
0.0 0.0 -0.01771403 -0.030371645 0.0 -0.033616364 -0.005943557 -0.01874603
-0.017154384 0.0 -0.030152023 0.0 -0.019269891 -0.006003852 0.0 -0.010198649
0.0 0.0 0.0 -0.006172217 0.0 0.0 -0.013890572 0.0
-0.011218736 -0.00815185 -0.0044948207 -0.03156284 -0.016379 -0.015681792 0.0 -0.021098236
0.0 -0.028272076 -0.005552482 -0.020058354 0.0 -0.017800385 -0.016279545 -0.017432818
0.0 0.0 0.0 0.0 0.0 -0.0155493 0.0 -0.026737394
0.0 -0.019816468 0.0 -0.0023259537 -0.01329204 -0.008650284 -0.011724876 0.0
0.0 0.0 -0.02365447 -0.003338965 -0.016210932 -0.004886218 0.0 -0.015263343
-0.00408421 0.0 -0.02286214 0.0 -0.0054184385 0.0 -0.003465609 -0.005541228
-0.0060034883 -0.005556331 -0.0040212614 -0.010738983 -0.00509637 -0.018500669 -0.013910787 -0.0057637533
00000000: 0000 0000 0000 0000 05d7 20bc 0000 0000
00000010: f221 41bc 0000 0000 889c cabc 41c3 84bc
00000020: 0000 0000 ad5c 18bc 94c9 0cbc 218f 5ebc
00000030: 54e4 b2bb 0000 0000 cb4a f1bb 59a7 4dbc
00000040: d816 303b 8785 41bc c81f cbbc c609 a2bc
00000050: 0000 0000 2760 b3bb d6c4 69bc 43b1 8aba
00000060: 0714 24bc dae1 b3bc 01c0 c4bb 0000 0000
00000070: 6d88 36bc 0000 0000 02cd e6bc 4d5f 2ebc
00000080: 4a29 d1bc 0000 0000 0000 0000 ad92 bfbb
00000090: 0000 0000 0000 0000 d44e abbb df3b e7bc
000000a0: 11d9 57bc 0000 0000 3e13 9abc dd21 38bc
000000b0: 0068 d7bb 36f2 82bc 69b6 1bbb dd9b 09bd
000000c0: 0000 0000 0000 0000 031d 91bc f5cd f8bc
000000d0: 0000 0000 50b1 09bd 2bc2 c2bb 4691 99bc
000000e0: 5a87 8cbc 0000 0000 6001 f7bc 0000 0000
000000f0: e4db 9dbc f6bb c4bb 0000 0000 3c18 27bc
00000100: 0000 0000 0000 0000 0000 0000 4f40 cabb
00000110: 0000 0000 0000 0000 4895 63bc 0000 0000
00000120: cace 37bc 568f 05bc 4a49 93bb 0948 01bd
00000130: 412d 86bc 1a77 80bc 0000 0000 35d6 acbc
00000140: 0000 0000 d79a e7bc 98f1 b5bb 6b51 a4bc
00000150: 0000 0000 1dd2 91bc ae5c 85bc 45cf 8ebc
00000160: 0000 0000 0000 0000 0000 0000 0000 0000
00000170: 0000 0000 7ec2 7ebc 0000 0000 6108 dbbc
00000180: 0000 0000 2556 a2bc 0000 0000 076f 18bb
00000190: dbc6 59bc ecb9 0dbc b219 40bc 0000 0000
000001a0: 0000 0000 0000 0000 05c7 c1bc 89d2 5abb
000001b0: cacc 84bc 911c a0bb 0000 0000 1a13 7abc
000001c0: d6d4 85bb 0000 0000 6249 bbbc 0000 0000
000001d0: 288d b1bb 0000 0000 451f 63bb 3193 b5bb
000001e0: e9b8 c4bb e211 b6bb c9c4 83bb 8ff2 2fbc
000001f0: 73ff a6bb b78e 97bc 12ea 63bc dedd bcbb

sequential_3_1/dense_9_1/MatMul f4 [128, 532]
0.074356556 0.044295058 0.07106471 0.08842932 0.00013491511 -0.011317901 -0.03001687 0.081633
-0.016685046 0.07179953 -0.08794684 -0.057017818 -0.08645592 -0.092762776 -0.03061261 0.047710747
-0.00040963292 0.0865379 -0.052517317 -0.0032486767 -0.030135736 0.05040905 -0.05324223 -0.09049543
-0.06414854 0.048205674 0.09417148 0.07382609 0.06883529 0.012926802 -0.021618687 0.08253637
-0.056279812 -0.06570988 0.075209945 -0.07773164 0.072633654 0.035028532 -0.0076244846 0.08697574
-0.0664676 0.08490357 0.050307304 0.058329925 0.05379817 0.06250115 0.09079234 -0.052401543
-0.055947807 -0.013480313 0.025679477 -0.023181967 0.0063594803 -0.048540253 0.08758417 0.059930548
-0.021318935 0.047686905 -0.0785501 -0.027929112 -0.095074534 -0.004861556 0.092938274 -0.012195595
-0.0014666691 0.038688093 0.08488059 -0.07417526 -0.033446424 0.063298136 -0.078478105 0.0556363
-0.018547319 0.08929062 0.05709806 0.08975582 0.080750704 0.030727297 0.0123855695 -0.06843138
0.0043189824 -0.012114599 -0.06684522 -0.067871585 -0.029145494 0.054477915 -0.012771472 0.06327759
0.080706 -0.00020070374 0.007674068 0.09501076 0.09210901 0.049901903 0.06163682 -0.0093810335
-0.077507295 -0.036902715 0.09272824 -0.0670209 -0.090671085 0.0060380474 -0.014895283 -0.0136151165
0.018663257 0.027223676 -0.03295336 0.089328915 0.048707023 0.06468855 0.046883017 0.07826942
0.09043597 0.07733144 -0.08884736 0.032016978 0.00013487041 0.014473528 0.04479213 -0.02936618
0.033706456 -0.028803825 0.08595313 -0.08037989 -0.04699866 0.0066443384 0.031648204 0.084511235
0.017523296 0.091488495 0.029966965 0.03737825 -0.040233795 -0.08106888 0.004839048 0.034431458
0.034234077 0.07414259 -0.08134303 -0.081245676 0.086857334 0.033344954 0.04515621 -0.045098443
-0.091429345 -0.025439218 -0.049796738 0.03240797 0.08788258 0.03962396 0.06924485 -0.07016219
-0.058989663 0.071743205 0.0574899 -0.07272369 -0.064663015 -0.04051095 0.08472715 0.027325518
-0.04433675 -0.017310299 -0.024657175 -0.047406685 -0.04737372 -0.030931093 -0.071443744 0.04302971
-0.07065557 -0.030083336 0.03835006 -0.0044139326 -0.07829784 -0.04147657 -0.0011594146 -0.0045458972
-0.004698202 0.0487794 -0.086803496 0.07848106 0.038769543 0.060654163 -0.032791056 -0.050590094
0.03651327 -0.024918467 -0.08682584 -0.020857878 0.09190518 -0.027293742 -0.059568066 0.014724314
-0.09122541 0.08855653 -0.039398998 -0.017087586 -0.048631955 0.08543728 -0.053145092 -0.035511293
0.033811763 0.012100324 -0.03982127 0.058973655 0.07037014 -0.042063724 0.06653799 -0.024864681
-0.00519868 0.04767008 -0.065478355 -0.081446305 -0.091553554 0.040416405 0.018515863 0.019809783
0.018799603 -0.010951273 -0.06409123 -0.045470025 -0.0887259 0.07489635 0.027032204 0.09104662
0.072670996 -0.009146735 -0.07597691 -0.07923436 -0.0396932 0.08027139 0.04355435 0.08620529
0.005574353 0.045013964 -0.044155803 0.07262187 -0.014100879 -0.05812429 0.08750279 -0.085001305
-0.03776095 0.0122188255 0.064358234 0.09246567 -0.032734334 0.073360085 -0.02576454 0.028683439
0.020902365 -0.044123683 -0.06982753 0.0886901 0.08963056 0.031856388 -0.014306448 -0.025441557
00000000: 4048 983d bc6e 353d 608a 913d 6e1a b53d
00000010: 0078 0d39 b86e 39bc f0e5 f5bc 342f a73d
00000020: 14af 88bc a20b 933d 791d b4bd 848b 69bd
00000030: cd0f b1bd 69fa bdbd 4cc7 fabc 586c 433d
00000040: 00c4 d6b9 c83a b13d 661c 57bd c0e7 54bb
00000050: 38df f6bc b879 4e3d 8614 5abd ab55 b9bd
00000060: 4f60 83bd 5073 453d fadc c03d 2232 973d
00000070: 84f9 8c3d f0ca 533c ac19 b1bc d408 a93d
00000080: a985 66bd e792 86bd ac07 9a3d c431 9fbd
00000090: f4c0 943d 147a 0f3d d0d6 f9bb 5620 b23d
000000a0: 2a20 88bd ece1 ad3d 080f 4e3d 5ceb 6e3d
000000b0: 785b 5c3d 9a00 803d 56f1 b93d 00a3 56bd
000000c0: 8729 65bd 88dc 5cbc c45d d23c 1ce8 bdbc
000000d0: 3063 d03b 25d2 46bd 545f b33d bc79 753d
000000e0: 0ca5 aebc 5853 433d e0de a0bd 98cb e4bc
000000f0: 70b6 c2bd b04d 9fbb 6c56 be3d 08d0 47bc
00000100: 403d c0ba 6877 1e3d e0d5 ad3d 33e9 97bd
00000110: 1eff 08bd 74a2 813d 21b9 a0bd e4e2 633d
00000120: 8cf0 97bc 00de b63d a8df 693d e6d1 b73d
00000130: a060 a53d d0b7 fb3c d8ec 4a3c c025 8cbd
00000140: 4086 8d3b 507c 46bc 26e6 88bd 4200 8bbd
00000150: 88c2 eebc 3c24 5f3d 703f 51bc ae97 813d
00000160: 3049 a53d 0074 52b9 c076 fb3b 0095 c23d
00000170: a6a3 bc3d f065 4c3d e476 7c3d e8b2 19bc
00000180: 25bc 9ebd 4d27 17bd 4ee8 bd3d 4142 89bd
00000190: c3b1 b9bd d0da c53b 580b 74bc f011 5fbc
000001a0: b0e3 983c 3004 df3c 1afa 06bd 14f2 b63d
000001b0: 0481 473d 6e7b 843d 6808 403d b84b a03d
000001c0: 7e36 b93d f25f 9e3d 9bf5 b5bd 3c24 033d
000001d0: 006c 0d39 6022 6d3c f477 373d 5891 f0bc
000001e0: c80f 0a3d 00f6 ebbc 3208 b03d 369e a4bd
000001f0: ab81 40bd c0b8 d93b 8ca1 013d 3a14 ad3d
00000200: 048d 8f3c 525e bb3d 487d f53c f019 193d
00000210: 31cc 24bd 7107 a6bd e090 9e3b 0008 0d3d
00000220: 0839 0c3d 12d8 973d 2d97 a6bd 2264 a6bd
00000230: 42e2 b13d b894 083d b8f5 383d 25b9 38bd
00000240: 4f3f bbbd e865 d0bc aaf7 4bbd 38be 043d
00000250: c8fb b33d bc4c 223d 3ed0 8d3d 32b1 8fbd
00000260: 259f 71bd 1aee 923d 887a 6b3d 28f0 94bd
00000270: 0b6e 84bd cfee 25bd 6e85 ad3d c4d9 df3c
00000280: 749a 35bd 54ce 8dbc d8fd c9bc 832d 42bd
00000290: f20a 42bd 3463 fdbc 1951 92bd ec3f 303d
000002a0: deb3 90bd 5471 f6bc f414 1d3d c0a2 90bb
000002b0: 9e5a a0bd 56e3 29bd 80f7 97ba c0f5 94bb
000002c0: 60f3 99bb e8cc 473d 08c6 b1bd aeba a03d
000002d0: d0cc 1e3d 8070 783d ea4f 06bd 8f37 4fbd
000002e0: f08e 153d d021 ccbc bfd1 b1bd 24de aabc
000002f0: c838 bc3d 2097 dfbc a5fd 73bd 403e 713c
00000300: 63d4 babd 205d b53d d860 21bd 44fb 8bbc
00000310: 4d32 47bd bef9 ae3d abae 59bd 4a74 11bd
00000320: 347e 0a3d 7040 463c a11b 23bd 5c8e 713d
00000330: 381e 903d 034b 2cbd 1245 883d 04b1 cbbc
00000340: b059 aabb b441 433d 8419 86bd 52cd a6bd
00000350: 6e80 bbbd ac8b 253d 94ae 973c 2048 a23c
00000360: a001 9a3c f86c 33bc 4342 83bd c73e 3abd
00000370: edb5 b5bd 4263 993d a472 dd3c a676 ba3d
00000380: 88d4 943d 30dc 15bc c899 9bbd a045 a2bd
00000390: 5695 22bd 5465 a43d 0c66 323d 668c b03d
000003a0: 10a9 b63b 9060 383d b7dc 34bd c6ba 943d
000003b0: 6007 67bc bc13 6ebd aa34 b33d 2a15 aebd
000003c0: 3aab 1abd 7831 483c 40ce 833d a45e bd3d
000003d0: 7014 06bd d03d 963d 2810 d3bc 88f9 ea3c
000003e0: 703b ab3c 09bb 34bd bc01 8fbd 28a3 b53d
000003f0: 3a90 b73d d87b 023d 9865 6abc d06a d0bc
